{"model_structure":"==========================================================================================\nLayer (type:depth-idx)                   Output Shape              Param #\n==========================================================================================\nSimpleMNISTModel                         [4, 10]                   --\n├─Linear: 1-1                            [4, 256]                  200,960\n├─ReLU: 1-2                              [4, 256]                  --\n├─Linear: 1-3                            [4, 512]                  131,584\n├─ReLU: 1-4                              [4, 512]                  --\n├─Linear: 1-5                            [4, 10]                   5,130\n==========================================================================================\nTotal params: 337,674\nTrainable params: 337,674\nNon-trainable params: 0\nTotal mult-adds (Units.MEGABYTES): 1.35\n==========================================================================================\nInput size (MB): 0.01\nForward/backward pass size (MB): 0.02\nParams size (MB): 1.35\nEstimated To
…
