==========================================================================================
Layer (type:depth-idx)                   Output Shape              Param #
==========================================================================================
SimpleMNISTModel                         [4, 10]                   --
├─Linear: 1-1                            [4, 256]                  200,960
├─ReLU: 1-2                              [4, 256]                  --
├─Linear: 1-3                            [4, 512]                  131,584
├─ReLU: 1-4                              [4, 512]                  --
├─Linear: 1-5                            [4, 10]                   5,130
==========================================================================================
Total params: 337,674
Trainable params: 337,674
Non-trainable params: 0
Total mult-adds (Units.MEGABYTES): 1.35
==========================================================================================
Input size (MB): 0.01
Forward/backward pass size (MB): 0.02
Params size (MB): 1.35
Estimated Total Size (MB): 1.39
==========================================================================================
2026-01-03 19:09:42,898 - Server - INFO - Model Summary:
2026-01-03 19:09:42,898 - Server - INFO - ==========================================================================================
Layer (type:depth-idx)                   Output Shape              Param #
==========================================================================================
SimpleMNISTModel                         [4, 10]                   --
├─Linear: 1-1                            [4, 256]                  200,960
├─ReLU: 1-2                              [4, 256]                  --
├─Linear: 1-3                            [4, 512]                  131,584
├─ReLU: 1-4                              [4, 512]                  --
├─Linear: 1-5                            [4, 10]                   5,130
==========================================================================================
Total params: 337,674
Trainable params: 337,674
Non-trainable params: 0
Total mult-adds (Units.MEGABYTES): 1.35
==========================================================================================
Input size (MB): 0.01
Forward/backward pass size (MB): 0.02
Params size (MB): 1.35
Estimated Total Size (MB): 1.39
…
